INFO:root:GhostNet(
  (conv_stem): Conv2d(3, 16, kernel_size=(3, 3), stride=(2, 2), padding=(1, 1), bias=False)
  (bn1): BatchNorm2d(16, eps=1e-05, momentum=0.1, affine=True, track_running_stats=True)
  (act1): ReLU(inplace=True)
  (blocks): Sequential(
    (0): Sequential(
      (0): GhostBottleneck(
        (ghost1): GhostModule(
          (primary_conv): Sequential(
            (0): Conv2d(16, 8, kernel_size=(1, 1), stride=(1, 1), bias=False)
            (1): BatchNorm2d(8, eps=1e-05, momentum=0.1, affine=True, track_running_stats=True)
            (2): ReLU(inplace=True)
          )
          (cheap_operation): Sequential(
            (0): Conv2d(8, 8, kernel_size=(3, 3), stride=(1, 1), padding=(1, 1), groups=8, bias=False)
            (1): BatchNorm2d(8, eps=1e-05, momentum=0.1, affine=True, track_running_stats=True)
            (2): ReLU(inplace=True)
          )
        )
        (ghost2): GhostModule(
          (primary_conv): Sequential(
            (0): Conv2d(16, 8, kernel_size=(1, 1), stride=(1, 1), bias=False)
            (1): BatchNorm2d(8, eps=1e-05, momentum=0.1, affine=True, track_running_stats=True)
            (2): Sequential()
          )
          (cheap_operation): Sequential(
            (0): Conv2d(8, 8, kernel_size=(3, 3), stride=(1, 1), padding=(1, 1), groups=8, bias=False)
            (1): BatchNorm2d(8, eps=1e-05, momentum=0.1, affine=True, track_running_stats=True)
            (2): Sequential()
          )
        )
        (shortcut): Sequential()
      )
    )
    (1): Sequential(
      (0): GhostBottleneck(
        (ghost1): GhostModule(
          (primary_conv): Sequential(
            (0): Conv2d(16, 24, kernel_size=(1, 1), stride=(1, 1), bias=False)
            (1): BatchNorm2d(24, eps=1e-05, momentum=0.1, affine=True, track_running_stats=True)
            (2): ReLU(inplace=True)
          )
          (cheap_operation): Sequential(
            (0): Conv2d(24, 24, kernel_size=(3, 3), stride=(1, 1), padding=(1, 1), groups=24, bias=False)
            (1): BatchNorm2d(24, eps=1e-05, momentum=0.1, affine=True, track_running_stats=True)
            (2): ReLU(inplace=True)
          )
        )
        (conv_dw): Conv2d(48, 48, kernel_size=(3, 3), stride=(2, 2), padding=(1, 1), groups=48, bias=False)
        (bn_dw): BatchNorm2d(48, eps=1e-05, momentum=0.1, affine=True, track_running_stats=True)
        (ghost2): GhostModule(
          (primary_conv): Sequential(
            (0): Conv2d(48, 12, kernel_size=(1, 1), stride=(1, 1), bias=False)
            (1): BatchNorm2d(12, eps=1e-05, momentum=0.1, affine=True, track_running_stats=True)
            (2): Sequential()
          )
          (cheap_operation): Sequential(
            (0): Conv2d(12, 12, kernel_size=(3, 3), stride=(1, 1), padding=(1, 1), groups=12, bias=False)
            (1): BatchNorm2d(12, eps=1e-05, momentum=0.1, affine=True, track_running_stats=True)
            (2): Sequential()
          )
        )
        (shortcut): Sequential(
          (0): Conv2d(16, 16, kernel_size=(3, 3), stride=(2, 2), padding=(1, 1), groups=16, bias=False)
          (1): BatchNorm2d(16, eps=1e-05, momentum=0.1, affine=True, track_running_stats=True)
          (2): Conv2d(16, 24, kernel_size=(1, 1), stride=(1, 1), bias=False)
          (3): BatchNorm2d(24, eps=1e-05, momentum=0.1, affine=True, track_running_stats=True)
        )
      )
    )
    (2): Sequential(
      (0): GhostBottleneck(
        (ghost1): GhostModule(
          (primary_conv): Sequential(
            (0): Conv2d(24, 36, kernel_size=(1, 1), stride=(1, 1), bias=False)
            (1): BatchNorm2d(36, eps=1e-05, momentum=0.1, affine=True, track_running_stats=True)
            (2): ReLU(inplace=True)
          )
          (cheap_operation): Sequential(
            (0): Conv2d(36, 36, kernel_size=(3, 3), stride=(1, 1), padding=(1, 1), groups=36, bias=False)
            (1): BatchNorm2d(36, eps=1e-05, momentum=0.1, affine=True, track_running_stats=True)
            (2): ReLU(inplace=True)
          )
        )
        (ghost2): GhostModule(
          (primary_conv): Sequential(
            (0): Conv2d(72, 12, kernel_size=(1, 1), stride=(1, 1), bias=False)
            (1): BatchNorm2d(12, eps=1e-05, momentum=0.1, affine=True, track_running_stats=True)
            (2): Sequential()
          )
          (cheap_operation): Sequential(
            (0): Conv2d(12, 12, kernel_size=(3, 3), stride=(1, 1), padding=(1, 1), groups=12, bias=False)
            (1): BatchNorm2d(12, eps=1e-05, momentum=0.1, affine=True, track_running_stats=True)
            (2): Sequential()
          )
        )
        (shortcut): Sequential()
      )
    )
    (3): Sequential(
      (0): GhostBottleneck(
        (ghost1): GhostModule(
          (primary_conv): Sequential(
            (0): Conv2d(24, 36, kernel_size=(1, 1), stride=(1, 1), bias=False)
            (1): BatchNorm2d(36, eps=1e-05, momentum=0.1, affine=True, track_running_stats=True)
            (2): ReLU(inplace=True)
          )
          (cheap_operation): Sequential(
            (0): Conv2d(36, 36, kernel_size=(3, 3), stride=(1, 1), padding=(1, 1), groups=36, bias=False)
            (1): BatchNorm2d(36, eps=1e-05, momentum=0.1, affine=True, track_running_stats=True)
            (2): ReLU(inplace=True)
          )
        )
        (conv_dw): Conv2d(72, 72, kernel_size=(5, 5), stride=(2, 2), padding=(2, 2), groups=72, bias=False)
        (bn_dw): BatchNorm2d(72, eps=1e-05, momentum=0.1, affine=True, track_running_stats=True)
        (se): SqueezeExcite(
          (avg_pool): AdaptiveAvgPool2d(output_size=1)
          (conv_reduce): Conv2d(72, 20, kernel_size=(1, 1), stride=(1, 1))
          (act1): ReLU(inplace=True)
          (conv_expand): Conv2d(20, 72, kernel_size=(1, 1), stride=(1, 1))
        )
        (ghost2): GhostModule(
          (primary_conv): Sequential(
            (0): Conv2d(72, 20, kernel_size=(1, 1), stride=(1, 1), bias=False)
            (1): BatchNorm2d(20, eps=1e-05, momentum=0.1, affine=True, track_running_stats=True)
            (2): Sequential()
          )
          (cheap_operation): Sequential(
            (0): Conv2d(20, 20, kernel_size=(3, 3), stride=(1, 1), padding=(1, 1), groups=20, bias=False)
            (1): BatchNorm2d(20, eps=1e-05, momentum=0.1, affine=True, track_running_stats=True)
            (2): Sequential()
          )
        )
        (shortcut): Sequential(
          (0): Conv2d(24, 24, kernel_size=(5, 5), stride=(2, 2), padding=(2, 2), groups=24, bias=False)
          (1): BatchNorm2d(24, eps=1e-05, momentum=0.1, affine=True, track_running_stats=True)
          (2): Conv2d(24, 40, kernel_size=(1, 1), stride=(1, 1), bias=False)
          (3): BatchNorm2d(40, eps=1e-05, momentum=0.1, affine=True, track_running_stats=True)
        )
      )
    )
    (4): Sequential(
      (0): GhostBottleneck(
        (ghost1): GhostModule(
          (primary_conv): Sequential(
            (0): Conv2d(40, 60, kernel_size=(1, 1), stride=(1, 1), bias=False)
            (1): BatchNorm2d(60, eps=1e-05, momentum=0.1, affine=True, track_running_stats=True)
            (2): ReLU(inplace=True)
          )
          (cheap_operation): Sequential(
            (0): Conv2d(60, 60, kernel_size=(3, 3), stride=(1, 1), padding=(1, 1), groups=60, bias=False)
            (1): BatchNorm2d(60, eps=1e-05, momentum=0.1, affine=True, track_running_stats=True)
            (2): ReLU(inplace=True)
          )
        )
        (se): SqueezeExcite(
          (avg_pool): AdaptiveAvgPool2d(output_size=1)
          (conv_reduce): Conv2d(120, 32, kernel_size=(1, 1), stride=(1, 1))
          (act1): ReLU(inplace=True)
          (conv_expand): Conv2d(32, 120, kernel_size=(1, 1), stride=(1, 1))
        )
        (ghost2): GhostModule(
          (primary_conv): Sequential(
            (0): Conv2d(120, 20, kernel_size=(1, 1), stride=(1, 1), bias=False)
            (1): BatchNorm2d(20, eps=1e-05, momentum=0.1, affine=True, track_running_stats=True)
            (2): Sequential()
          )
          (cheap_operation): Sequential(
            (0): Conv2d(20, 20, kernel_size=(3, 3), stride=(1, 1), padding=(1, 1), groups=20, bias=False)
            (1): BatchNorm2d(20, eps=1e-05, momentum=0.1, affine=True, track_running_stats=True)
            (2): Sequential()
          )
        )
        (shortcut): Sequential()
      )
    )
    (5): Sequential(
      (0): GhostBottleneck(
        (ghost1): GhostModule(
          (primary_conv): Sequential(
            (0): Conv2d(40, 120, kernel_size=(1, 1), stride=(1, 1), bias=False)
            (1): BatchNorm2d(120, eps=1e-05, momentum=0.1, affine=True, track_running_stats=True)
            (2): ReLU(inplace=True)
          )
          (cheap_operation): Sequential(
            (0): Conv2d(120, 120, kernel_size=(3, 3), stride=(1, 1), padding=(1, 1), groups=120, bias=False)
            (1): BatchNorm2d(120, eps=1e-05, momentum=0.1, affine=True, track_running_stats=True)
            (2): ReLU(inplace=True)
          )
        )
        (conv_dw): Conv2d(240, 240, kernel_size=(3, 3), stride=(2, 2), padding=(1, 1), groups=240, bias=False)
        (bn_dw): BatchNorm2d(240, eps=1e-05, momentum=0.1, affine=True, track_running_stats=True)
        (ghost2): GhostModule(
          (primary_conv): Sequential(
            (0): Conv2d(240, 40, kernel_size=(1, 1), stride=(1, 1), bias=False)
            (1): BatchNorm2d(40, eps=1e-05, momentum=0.1, affine=True, track_running_stats=True)
            (2): Sequential()
          )
          (cheap_operation): Sequential(
            (0): Conv2d(40, 40, kernel_size=(3, 3), stride=(1, 1), padding=(1, 1), groups=40, bias=False)
            (1): BatchNorm2d(40, eps=1e-05, momentum=0.1, affine=True, track_running_stats=True)
            (2): Sequential()
          )
        )
        (shortcut): Sequential(
          (0): Conv2d(40, 40, kernel_size=(3, 3), stride=(2, 2), padding=(1, 1), groups=40, bias=False)
          (1): BatchNorm2d(40, eps=1e-05, momentum=0.1, affine=True, track_running_stats=True)
          (2): Conv2d(40, 80, kernel_size=(1, 1), stride=(1, 1), bias=False)
          (3): BatchNorm2d(80, eps=1e-05, momentum=0.1, affine=True, track_running_stats=True)
        )
      )
    )
    (6): Sequential(
      (0): GhostBottleneck(
        (ghost1): GhostModule(
          (primary_conv): Sequential(
            (0): Conv2d(80, 100, kernel_size=(1, 1), stride=(1, 1), bias=False)
            (1): BatchNorm2d(100, eps=1e-05, momentum=0.1, affine=True, track_running_stats=True)
            (2): ReLU(inplace=True)
          )
          (cheap_operation): Sequential(
            (0): Conv2d(100, 100, kernel_size=(3, 3), stride=(1, 1), padding=(1, 1), groups=100, bias=False)
            (1): BatchNorm2d(100, eps=1e-05, momentum=0.1, affine=True, track_running_stats=True)
            (2): ReLU(inplace=True)
          )
        )
        (ghost2): GhostModule(
          (primary_conv): Sequential(
            (0): Conv2d(200, 40, kernel_size=(1, 1), stride=(1, 1), bias=False)
            (1): BatchNorm2d(40, eps=1e-05, momentum=0.1, affine=True, track_running_stats=True)
            (2): Sequential()
          )
          (cheap_operation): Sequential(
            (0): Conv2d(40, 40, kernel_size=(3, 3), stride=(1, 1), padding=(1, 1), groups=40, bias=False)
            (1): BatchNorm2d(40, eps=1e-05, momentum=0.1, affine=True, track_running_stats=True)
            (2): Sequential()
          )
        )
        (shortcut): Sequential()
      )
      (1): GhostBottleneck(
        (ghost1): GhostModule(
          (primary_conv): Sequential(
            (0): Conv2d(80, 92, kernel_size=(1, 1), stride=(1, 1), bias=False)
            (1): BatchNorm2d(92, eps=1e-05, momentum=0.1, affine=True, track_running_stats=True)
            (2): ReLU(inplace=True)
          )
          (cheap_operation): Sequential(
            (0): Conv2d(92, 92, kernel_size=(3, 3), stride=(1, 1), padding=(1, 1), groups=92, bias=False)
            (1): BatchNorm2d(92, eps=1e-05, momentum=0.1, affine=True, track_running_stats=True)
            (2): ReLU(inplace=True)
          )
        )
        (ghost2): GhostModule(
          (primary_conv): Sequential(
            (0): Conv2d(184, 40, kernel_size=(1, 1), stride=(1, 1), bias=False)
            (1): BatchNorm2d(40, eps=1e-05, momentum=0.1, affine=True, track_running_stats=True)
            (2): Sequential()
          )
          (cheap_operation): Sequential(
            (0): Conv2d(40, 40, kernel_size=(3, 3), stride=(1, 1), padding=(1, 1), groups=40, bias=False)
            (1): BatchNorm2d(40, eps=1e-05, momentum=0.1, affine=True, track_running_stats=True)
            (2): Sequential()
          )
        )
        (shortcut): Sequential()
      )
      (2): GhostBottleneck(
        (ghost1): GhostModule(
          (primary_conv): Sequential(
            (0): Conv2d(80, 92, kernel_size=(1, 1), stride=(1, 1), bias=False)
            (1): BatchNorm2d(92, eps=1e-05, momentum=0.1, affine=True, track_running_stats=True)
            (2): ReLU(inplace=True)
          )
          (cheap_operation): Sequential(
            (0): Conv2d(92, 92, kernel_size=(3, 3), stride=(1, 1), padding=(1, 1), groups=92, bias=False)
            (1): BatchNorm2d(92, eps=1e-05, momentum=0.1, affine=True, track_running_stats=True)
            (2): ReLU(inplace=True)
          )
        )
        (ghost2): GhostModule(
          (primary_conv): Sequential(
            (0): Conv2d(184, 40, kernel_size=(1, 1), stride=(1, 1), bias=False)
            (1): BatchNorm2d(40, eps=1e-05, momentum=0.1, affine=True, track_running_stats=True)
            (2): Sequential()
          )
          (cheap_operation): Sequential(
            (0): Conv2d(40, 40, kernel_size=(3, 3), stride=(1, 1), padding=(1, 1), groups=40, bias=False)
            (1): BatchNorm2d(40, eps=1e-05, momentum=0.1, affine=True, track_running_stats=True)
            (2): Sequential()
          )
        )
        (shortcut): Sequential()
      )
      (3): GhostBottleneck(
        (ghost1): GhostModule(
          (primary_conv): Sequential(
            (0): Conv2d(80, 240, kernel_size=(1, 1), stride=(1, 1), bias=False)
            (1): BatchNorm2d(240, eps=1e-05, momentum=0.1, affine=True, track_running_stats=True)
            (2): ReLU(inplace=True)
          )
          (cheap_operation): Sequential(
            (0): Conv2d(240, 240, kernel_size=(3, 3), stride=(1, 1), padding=(1, 1), groups=240, bias=False)
            (1): BatchNorm2d(240, eps=1e-05, momentum=0.1, affine=True, track_running_stats=True)
            (2): ReLU(inplace=True)
          )
        )
        (se): SqueezeExcite(
          (avg_pool): AdaptiveAvgPool2d(output_size=1)
          (conv_reduce): Conv2d(480, 120, kernel_size=(1, 1), stride=(1, 1))
          (act1): ReLU(inplace=True)
          (conv_expand): Conv2d(120, 480, kernel_size=(1, 1), stride=(1, 1))
        )
        (ghost2): GhostModule(
          (primary_conv): Sequential(
            (0): Conv2d(480, 56, kernel_size=(1, 1), stride=(1, 1), bias=False)
            (1): BatchNorm2d(56, eps=1e-05, momentum=0.1, affine=True, track_running_stats=True)
            (2): Sequential()
          )
          (cheap_operation): Sequential(
            (0): Conv2d(56, 56, kernel_size=(3, 3), stride=(1, 1), padding=(1, 1), groups=56, bias=False)
            (1): BatchNorm2d(56, eps=1e-05, momentum=0.1, affine=True, track_running_stats=True)
            (2): Sequential()
          )
        )
        (shortcut): Sequential(
          (0): Conv2d(80, 80, kernel_size=(3, 3), stride=(1, 1), padding=(1, 1), groups=80, bias=False)
          (1): BatchNorm2d(80, eps=1e-05, momentum=0.1, affine=True, track_running_stats=True)
          (2): Conv2d(80, 112, kernel_size=(1, 1), stride=(1, 1), bias=False)
          (3): BatchNorm2d(112, eps=1e-05, momentum=0.1, affine=True, track_running_stats=True)
        )
      )
      (4): GhostBottleneck(
        (ghost1): GhostModule(
          (primary_conv): Sequential(
            (0): Conv2d(112, 336, kernel_size=(1, 1), stride=(1, 1), bias=False)
            (1): BatchNorm2d(336, eps=1e-05, momentum=0.1, affine=True, track_running_stats=True)
            (2): ReLU(inplace=True)
          )
          (cheap_operation): Sequential(
            (0): Conv2d(336, 336, kernel_size=(3, 3), stride=(1, 1), padding=(1, 1), groups=336, bias=False)
            (1): BatchNorm2d(336, eps=1e-05, momentum=0.1, affine=True, track_running_stats=True)
            (2): ReLU(inplace=True)
          )
        )
        (se): SqueezeExcite(
          (avg_pool): AdaptiveAvgPool2d(output_size=1)
          (conv_reduce): Conv2d(672, 168, kernel_size=(1, 1), stride=(1, 1))
          (act1): ReLU(inplace=True)
          (conv_expand): Conv2d(168, 672, kernel_size=(1, 1), stride=(1, 1))
        )
        (ghost2): GhostModule(
          (primary_conv): Sequential(
            (0): Conv2d(672, 56, kernel_size=(1, 1), stride=(1, 1), bias=False)
            (1): BatchNorm2d(56, eps=1e-05, momentum=0.1, affine=True, track_running_stats=True)
            (2): Sequential()
          )
          (cheap_operation): Sequential(
            (0): Conv2d(56, 56, kernel_size=(3, 3), stride=(1, 1), padding=(1, 1), groups=56, bias=False)
            (1): BatchNorm2d(56, eps=1e-05, momentum=0.1, affine=True, track_running_stats=True)
            (2): Sequential()
          )
        )
        (shortcut): Sequential()
      )
    )
    (7): Sequential(
      (0): GhostBottleneck(
        (ghost1): GhostModule(
          (primary_conv): Sequential(
            (0): Conv2d(112, 336, kernel_size=(1, 1), stride=(1, 1), bias=False)
            (1): BatchNorm2d(336, eps=1e-05, momentum=0.1, affine=True, track_running_stats=True)
            (2): ReLU(inplace=True)
          )
          (cheap_operation): Sequential(
            (0): Conv2d(336, 336, kernel_size=(3, 3), stride=(1, 1), padding=(1, 1), groups=336, bias=False)
            (1): BatchNorm2d(336, eps=1e-05, momentum=0.1, affine=True, track_running_stats=True)
            (2): ReLU(inplace=True)
          )
        )
        (conv_dw): Conv2d(672, 672, kernel_size=(5, 5), stride=(2, 2), padding=(2, 2), groups=672, bias=False)
        (bn_dw): BatchNorm2d(672, eps=1e-05, momentum=0.1, affine=True, track_running_stats=True)
        (se): SqueezeExcite(
          (avg_pool): AdaptiveAvgPool2d(output_size=1)
          (conv_reduce): Conv2d(672, 168, kernel_size=(1, 1), stride=(1, 1))
          (act1): ReLU(inplace=True)
          (conv_expand): Conv2d(168, 672, kernel_size=(1, 1), stride=(1, 1))
        )
        (ghost2): GhostModule(
          (primary_conv): Sequential(
            (0): Conv2d(672, 80, kernel_size=(1, 1), stride=(1, 1), bias=False)
            (1): BatchNorm2d(80, eps=1e-05, momentum=0.1, affine=True, track_running_stats=True)
            (2): Sequential()
          )
          (cheap_operation): Sequential(
            (0): Conv2d(80, 80, kernel_size=(3, 3), stride=(1, 1), padding=(1, 1), groups=80, bias=False)
            (1): BatchNorm2d(80, eps=1e-05, momentum=0.1, affine=True, track_running_stats=True)
            (2): Sequential()
          )
        )
        (shortcut): Sequential(
          (0): Conv2d(112, 112, kernel_size=(5, 5), stride=(2, 2), padding=(2, 2), groups=112, bias=False)
          (1): BatchNorm2d(112, eps=1e-05, momentum=0.1, affine=True, track_running_stats=True)
          (2): Conv2d(112, 160, kernel_size=(1, 1), stride=(1, 1), bias=False)
          (3): BatchNorm2d(160, eps=1e-05, momentum=0.1, affine=True, track_running_stats=True)
        )
      )
    )
    (8): Sequential(
      (0): GhostBottleneck(
        (ghost1): GhostModule(
          (primary_conv): Sequential(
            (0): Conv2d(160, 480, kernel_size=(1, 1), stride=(1, 1), bias=False)
            (1): BatchNorm2d(480, eps=1e-05, momentum=0.1, affine=True, track_running_stats=True)
            (2): ReLU(inplace=True)
          )
          (cheap_operation): Sequential(
            (0): Conv2d(480, 480, kernel_size=(3, 3), stride=(1, 1), padding=(1, 1), groups=480, bias=False)
            (1): BatchNorm2d(480, eps=1e-05, momentum=0.1, affine=True, track_running_stats=True)
            (2): ReLU(inplace=True)
          )
        )
        (ghost2): GhostModule(
          (primary_conv): Sequential(
            (0): Conv2d(960, 80, kernel_size=(1, 1), stride=(1, 1), bias=False)
            (1): BatchNorm2d(80, eps=1e-05, momentum=0.1, affine=True, track_running_stats=True)
            (2): Sequential()
          )
          (cheap_operation): Sequential(
            (0): Conv2d(80, 80, kernel_size=(3, 3), stride=(1, 1), padding=(1, 1), groups=80, bias=False)
            (1): BatchNorm2d(80, eps=1e-05, momentum=0.1, affine=True, track_running_stats=True)
            (2): Sequential()
          )
        )
        (shortcut): Sequential()
      )
      (1): GhostBottleneck(
        (ghost1): GhostModule(
          (primary_conv): Sequential(
            (0): Conv2d(160, 480, kernel_size=(1, 1), stride=(1, 1), bias=False)
            (1): BatchNorm2d(480, eps=1e-05, momentum=0.1, affine=True, track_running_stats=True)
            (2): ReLU(inplace=True)
          )
          (cheap_operation): Sequential(
            (0): Conv2d(480, 480, kernel_size=(3, 3), stride=(1, 1), padding=(1, 1), groups=480, bias=False)
            (1): BatchNorm2d(480, eps=1e-05, momentum=0.1, affine=True, track_running_stats=True)
            (2): ReLU(inplace=True)
          )
        )
        (se): SqueezeExcite(
          (avg_pool): AdaptiveAvgPool2d(output_size=1)
          (conv_reduce): Conv2d(960, 240, kernel_size=(1, 1), stride=(1, 1))
          (act1): ReLU(inplace=True)
          (conv_expand): Conv2d(240, 960, kernel_size=(1, 1), stride=(1, 1))
        )
        (ghost2): GhostModule(
          (primary_conv): Sequential(
            (0): Conv2d(960, 80, kernel_size=(1, 1), stride=(1, 1), bias=False)
            (1): BatchNorm2d(80, eps=1e-05, momentum=0.1, affine=True, track_running_stats=True)
            (2): Sequential()
          )
          (cheap_operation): Sequential(
            (0): Conv2d(80, 80, kernel_size=(3, 3), stride=(1, 1), padding=(1, 1), groups=80, bias=False)
            (1): BatchNorm2d(80, eps=1e-05, momentum=0.1, affine=True, track_running_stats=True)
            (2): Sequential()
          )
        )
        (shortcut): Sequential()
      )
      (2): GhostBottleneck(
        (ghost1): GhostModule(
          (primary_conv): Sequential(
            (0): Conv2d(160, 480, kernel_size=(1, 1), stride=(1, 1), bias=False)
            (1): BatchNorm2d(480, eps=1e-05, momentum=0.1, affine=True, track_running_stats=True)
            (2): ReLU(inplace=True)
          )
          (cheap_operation): Sequential(
            (0): Conv2d(480, 480, kernel_size=(3, 3), stride=(1, 1), padding=(1, 1), groups=480, bias=False)
            (1): BatchNorm2d(480, eps=1e-05, momentum=0.1, affine=True, track_running_stats=True)
            (2): ReLU(inplace=True)
          )
        )
        (ghost2): GhostModule(
          (primary_conv): Sequential(
            (0): Conv2d(960, 80, kernel_size=(1, 1), stride=(1, 1), bias=False)
            (1): BatchNorm2d(80, eps=1e-05, momentum=0.1, affine=True, track_running_stats=True)
            (2): Sequential()
          )
          (cheap_operation): Sequential(
            (0): Conv2d(80, 80, kernel_size=(3, 3), stride=(1, 1), padding=(1, 1), groups=80, bias=False)
            (1): BatchNorm2d(80, eps=1e-05, momentum=0.1, affine=True, track_running_stats=True)
            (2): Sequential()
          )
        )
        (shortcut): Sequential()
      )
      (3): GhostBottleneck(
        (ghost1): GhostModule(
          (primary_conv): Sequential(
            (0): Conv2d(160, 480, kernel_size=(1, 1), stride=(1, 1), bias=False)
            (1): BatchNorm2d(480, eps=1e-05, momentum=0.1, affine=True, track_running_stats=True)
            (2): ReLU(inplace=True)
          )
          (cheap_operation): Sequential(
            (0): Conv2d(480, 480, kernel_size=(3, 3), stride=(1, 1), padding=(1, 1), groups=480, bias=False)
            (1): BatchNorm2d(480, eps=1e-05, momentum=0.1, affine=True, track_running_stats=True)
            (2): ReLU(inplace=True)
          )
        )
        (se): SqueezeExcite(
          (avg_pool): AdaptiveAvgPool2d(output_size=1)
          (conv_reduce): Conv2d(960, 240, kernel_size=(1, 1), stride=(1, 1))
          (act1): ReLU(inplace=True)
          (conv_expand): Conv2d(240, 960, kernel_size=(1, 1), stride=(1, 1))
        )
        (ghost2): GhostModule(
          (primary_conv): Sequential(
            (0): Conv2d(960, 80, kernel_size=(1, 1), stride=(1, 1), bias=False)
            (1): BatchNorm2d(80, eps=1e-05, momentum=0.1, affine=True, track_running_stats=True)
            (2): Sequential()
          )
          (cheap_operation): Sequential(
            (0): Conv2d(80, 80, kernel_size=(3, 3), stride=(1, 1), padding=(1, 1), groups=80, bias=False)
            (1): BatchNorm2d(80, eps=1e-05, momentum=0.1, affine=True, track_running_stats=True)
            (2): Sequential()
          )
        )
        (shortcut): Sequential()
      )
    )
    (9): Sequential(
      (0): ConvBnAct(
        (conv): Conv2d(160, 960, kernel_size=(1, 1), stride=(1, 1), bias=False)
        (bn1): BatchNorm2d(960, eps=1e-05, momentum=0.1, affine=True, track_running_stats=True)
        (act1): ReLU(inplace=True)
      )
    )
  )
  (global_pool): AdaptiveAvgPool2d(output_size=(1, 1))
  (conv_head): Conv2d(960, 1280, kernel_size=(1, 1), stride=(1, 1))
  (act2): ReLU(inplace=True)
  (classifier): Linear(in_features=1280, out_features=1000, bias=True)
)
